assets/model/converted_model_cnn.tflite (tflite, 741824 bytes, 16 tensors)

sequential_2/conv2d/Relu;sequential_2/conv2d/BiasAdd;sequential_2/conv2d/Conv2D;sequential_2/conv2d/BiasAdd/ReadVariableOp f4 [32, 3, 3, 3]
00000000: 0e95 aa39 2309 8fb9 747b 0eba e000 e9b7
00000010: e812 d139 6078 1fba 5f48 91b9 4c94 08b9
00000020: ecec 14ba b9e8 8d39 5f42 31b9 f63a eeb9
00000030: 0287 083a c5bd 18ba 1631 4838 d6ca 36b9
00000040: b251 0ab8 0578 ce39 31b6 4f39 cd05 8d39
00000050: a4fc 6cb9 3cb5 5bb9 ab69 5039 81ec 80b9
00000060: acf0 1639 7da3 9db9 766f f339 0b25 19ba
00000070: 9e8d 0d39 3288 6339 5d73 09ba a2bf fab9
00000080: 26a1 76b9 1750 b7b9 cbb4 a739 9e7a 7db9
00000090: d56e ecb9 897f c6b8 cf1d a939 55a3 e339
000000a0: 336c ea39 e969 4139 2c6d 07ba ce4d 8539
000000b0: b45e dd39 c9a1 d4b9 a974 d7b9 a753 ec39
000000c0: 240a 59b9 6a72 e439 07cb e839 8a7d be39
000000d0: d446 4d39 0a1d 2639 af5e 5cb9 2a42 e839
000000e0: 6ca9 f739 5a09 62b9 a743 bdb7 d40d 153a
000000f0: de5d 9b35 fabf 3739 10b0 0a3a 993b afb9
00000100: e2c2 3f39 c456 0e3a 264e 2aba c9c5 a537
00000110: 4ccb 4839 5063 18ba ea08 4cb9 2ccb 6539
00000120: d115 5d39 789a d0b9 21ac 3238 35d0 34ba
00000130: 9957 9d39 c033 92b9 c66e b039 15dc 17b9
00000140: 7c8b c1b9 7657 0cba 761f 51b9 79b1 acb9
00000150: e1ce 07ba 363e 6838 7c93 7f39 c728 2639
00000160: dee7 beb8 5d9d 07ba 895e 1f39 943d f2b8
00000170: ed8c b439 ff5b 31b9 d7ed 0638 e3a8 9339
00000180: 61b7 8ab7 d9dc 1039 a4f3 91b8 219c e2b9
00000190: 933f c1b8 97c1 56b9 7c0d 74b9 4df3 ccb9
000001a0: 5fdf ebb9 603c 023a d2c0 40b7 ec33 cab9
000001b0: f508 d5b9 4929 8339 2f79 f7b8 9ac4 c5b9
000001c0: bfc5 5539 6549 c539 deab 19b8 5598 d338
000001d0: 4c1f ce39 83bd dbb9 2af0 8639 7264 8db9
000001e0: a4fa 02ba e4fa 5eb8 d43a 3bb7 e08a 0339
000001f0: ddd2 c838 4262 16b8 97c8 3339 90ad 8ab8
00000200: 4435 5539 7c60 0339 5a17 7139 d3f4 4039
00000210: 9353 c039 84da f839 abf7 5a39 abb2 7a39
00000220: 889b fb39 15c1 81b9 b104 8f39 665e 11ba
00000230: fbd8 0eb9 ecf1 05ba c24d f0b8 db25 ebb9
00000240: 915f 0c3a cc7c 3539 270e d5b8 ce65 7639
00000250: 99c3 16ba 4746 9c39 629d 4639 94da fa39
00000260: d6f7 9539 ef6d 4bb9 dd20 f7b9 9cbf 0939
00000270: 7ec8 ddb8 b798 d5b9 31ae 5f38 cd0a 71b9
00000280: 2abe 6439 ddb8 7eb9 8ed5 08ba 0c93 b2b9
00000290: 4894 b2b9 2349 fc39 1f95 023a 4789 c839
000002a0: 778b a5b8 3fd8 8838 7aa4 8239 7907 b7b9
000002b0: d987 87b8 69a9 3eb9 98a5 07ba 5267 ee39
000002c0: 41f2 0eba e1e4 d0b7 5e79 9539 d4c9 e2b9
000002d0: 32bb e339 53c0 4939 5a6b c4b9 3364 fb39
000002e0: f402 7838 f16b 3b39 7996 c739 d4fd 7039
000002f0: afd2 8b38 5a68 c7b8 733a 9139 e119 bdb9
00000300: f542 d639 7275 18ba ec8d bd39 bda8 2939
00000310: 845b 49b9 ab7b 8439 efab 2a39 8b50 84b9
00000320: 8df8 d7b8 3104 f438 f6e1 f6b9 a0c6 acb9
00000330: 6005 2339 446c c439 6cb8 5f39 b7ae 84b9
00000340: 1209 d7b8 9185 9038 211c 1c38 6acf 6439
00000350: e160 88b9 98d6 e038 b4a6 a237 a850 18ba
00000360: 1d9f 0e3a cf59 72b8 8201 6e39 ea81 e539
00000370: e0ea dbb8 1693 9837 70e9 eab9 ca79 cab9
00000380: c69d c8b9 fee8 bcb9 b8aa 1aba 9ea4 eab8
00000390: b81e 023a be93 feb8 5289 ceb9 8003 9d38
000003a0: 3371 7639 a3f8 5a39 e661 04b8 0011 b8b9
000003b0: 0787 48b9 c979 0e3a b578 3bb9 d2bf 9139
000003c0: dcc1 2139 a68d a839 5244 b139 cb8b bdb8
000003d0: 8ade 4a39 7a16 a1b8 e635 d339 86fc dbb9
000003e0: ba13 88b9 7381 deb9 0d89 f438 f87a b0b9
000003f0: d43e 6cb9 673f acb8 cb97 c139 07c5 b2b9
0.0003253598 -0.00027281893 -0.0005435266 -2.7776172e-05 0.00039877673 -0.0006083306 -0.00027710476 -0.00013025216
-0.0005681056 0.00027067008 -0.0001690476 -0.00045438827 0.0005208106 -0.00058266177 4.772943e-05 -0.00017432435
-3.297785e-05 0.00039380803 0.0001980893 0.00026897938 -0.0002260083 -0.00020952983 0.0001987579 -0.00024590272
0.00014394772 -0.00030067182 0.00046431617 -0.00058420066 0.00013499564 0.00021699144 -0.0005243326 -0.00047826493
-0.0002352042 -0.00034964152 0.00031987423 -0.00024173639 -0.00045096004 -9.465131e-05 0.000322564 0.00043418506
0.00044712573 0.00018445369 -0.0005166109 0.00025425706 0.00042222964 -0.0004055633 -0.00041094914 0.00045075754
-0.0002069851 0.00043572794 0.00044401755 0.00036333158 0.00019576709 0.00015841812 -0.00021016107 0.00044299784
0.0004723774 -0.00021556523 -2.2562059e-05 0.00056859595 1.1575719e-06 0.00017523757 0.00052905176 -0.00033423005
0.00018287779 0.0005429799 -0.00064966304 1.9761634e-05 0.0001914922 -0.00058131386 -0.00019458277 0.00021914829
0.0002108433 -0.0003978794 4.2598815e-05 -0.00068974803 0.0003001064 -0.00027885847 0.0003365187 -0.00014482469
-0.00036915753 -0.0005353609 -0.00019943513 -0.00032938624 -0.00051806687 5.537105e-05 0.00024373637 0.00015846184
-9.1030946e-05 -0.000517329 0.00015198639 -0.00011550929 0.00034437273 -0.00016914307 3.2169595e-05 0.00028163855
-1.6536274e-05 0.00013815182 -6.9595204e-05 -0.00043222404 -9.214799e-05 -0.00020480748 -0.00023274677 -0.00039091185
-0.00044989117 0.0004968103 -1.1488986e-05 -0.00038567127 -0.000406332 0.00025017027 -0.0001180045 -0.00037721248
0.00020386929 0.0003762945 -3.6638106e-05 0.00010089638 0.000393147 -0.00041912132 0.00025737408 -0.00026968453
-0.0004996455 -5.3162585e-05 -1.1159766e-05 0.00012544869 9.5760195e-05 -3.5854297e-05 0.00017145496 -6.612681e-05
0.00020333106 0.00012529077 0.0002299225 0.00018401751 0.0003668336 0.00047465053 0.00020882364 0.00023908417
0.0004799033 -0.00024748655 0.0002727858 -0.00055453775 -0.00013623007 -0.00051095965 -0.00011458575 -0.00044850897
0.00053548167 0.00017307996 -0.000101592675 0.00023498313 -0.0005751192 0.00029807 0.00018941381 0.0004784657
0.00028604147 -0.00019400542 -0.00047135996 0.00013136718 -0.00010575446 -0.00040740307 5.332957e-05 -0.00022987575
0.00021814616 -0.00024292195 -0.00052198104 -0.00034060364 -0.00034061284 0.00048119677 0.0004981327 0.00038249252
-7.8937905e-05 6.525264e-05 0.00024918077 -0.00034910048 -6.462605e-05 -0.00018182922 -0.00051745167 0.00045471877
-0.0005452969 -2.4902112e-05 0.0002850992 -0.00043256453 0.00043436285 0.000192405 -0.00037464016 0.00047949105
5.9130558e-05 0.00017873921 0.0003806835 0.00022982742 6.6672794e-05 -9.5084964e-05 0.00027700103 -0.0003606817
0.00040867148 -0.00058158406 0.0003615463 0.00016179956 -0.00019202946 0.00025269142 0.00016276514 -0.0002523701
-0.00010298295 0.000116356074 -0.0004708913 -0.00032954384 0.00015546894 0.00037464697 0.0002133564 -0.00025307175
-0.000102536884 6.891334e-05 3.7219495e-05 0.00021821042 -0.00026012122 0.000107211235 1.9389532e-05 -0.00058103586
0.000544058 -5.7780937e-05 0.0002269801 0.00043775077 -0.00010486483 1.8188304e-05 -0.00044805882 -0.00038619182
-0.00038264523 -0.00036031747 -0.0005900073 -0.00011188652 0.0004963684 -0.00012139183 -0.00039393693 7.486995e-05
0.00023502558 0.00020882724 -3.1562427e-05 -0.0003510788 -0.00019123788 0.00054350175 -0.00017878677 0.00027799472
0.00015426375 0.00032148993 0.00033810973 -9.038261e-05 0.00019347123 -7.681265e-05 0.00040285214 -0.0004195908
-0.0002595464 -0.00042439587 0.00011660354 -0.00033660955 -0.00022530119 -8.213409e-05 0.00036924923 -0.00034097602

sequential_2/conv2d/BiasAdd/ReadVariableOp f4 [32]
00000000: 26f5 673d 5df1 3dbd 6821 26bd 21be b6bc
00000010: 2deb edbd 7ef4 d7bc 03ac a2bd 6772 b8bc
00000020: acb9 14bd 112c e4bc 525c f6bc 341f d2bc
00000030: d26a f5bb 9024 a33b 79b2 26bd 81cd 2ebd
00000040: 80d9 ffbc 730b c3bd 5d5a c63c 652f 7b3d
00000050: c864 89bc 10fb 8abd 7b77 d4bc 894d d53b
00000060: c3f1 90bc b697 b4bb c0f9 61bd 5003 aebc
00000070: 877f df3c b2ac f23c 9467 1ebd a325 4c3d
0.056630276 -0.04637276 -0.040559202 -0.022307457 -0.11617122 -0.0263617 -0.07942965 -0.022515489
-0.036309883 -0.027853044 -0.030073319 -0.025649644 -0.0074895406 0.004978724 -0.04069755 -0.042676453
-0.031231642 -0.09523668 0.02421301 0.061324496 -0.016771689 -0.067861676 -0.025935879 0.006509487
-0.017693406 -0.0055112494 -0.05516982 -0.021241814 0.02728249 0.029623363 -0.038673 0.04984058

sequential_2/conv2d_1/BiasAdd/ReadVariableOp f4 [64]
00000000: feef d0bc 2448 693d 4103 e7bc 45ab 96bb
00000010: de8a 86bd ec5a 80bd 8203 14bd 65cf 0a3d
00000020: 0cbb 3fba 874f 64bd fb46 8a3d 3465 9ebc
00000030: e61e 803d 4ba4 82bc 8e4f f7bc 6318 48bd
00000040: f8a2 643c 0f1a ee3c 6d2e 02bd f70e 483d
00000050: 9070 2a3d 9eed 07bd 75cd 70bd 5167 96bc
00000060: 5826 b9bc 9e72 cd3c 7d8b 2abd 53a5 a5bc
00000070: afa3 8cbd d4fb a43c f02c 4bbc f6d5 65bc
00000080: 79a7 7fbd f5a6 25bd a96c 893c c1f1 8f3d
00000090: e9bf 2a3d ce66 79bb ae3b 7abd 21d6 4e3d
000000a0: e118 9dbc 9721 7dbc 01b1 623d 1022 68bd
000000b0: 82c5 62bd 7d1f 9cbd 3a07 88bd ec4d 0bbd
000000c0: 7aaa c7bc 051a 84bc 7445 dfbc 000b 33bd
000000d0: 25e0 98bc 82c2 f93b 4a39 1a3d f4bc e3bc
000000e0: 6dbb e4bc 76d9 4b3d 18b4 f9bc 5319 23bd
000000f0: 7a33 79bc a31d 69bd fc14 91bc 34dd 8ab9
-0.025505062 0.056953564 -0.028199794 -0.0045980536 -0.065694556 -0.06267342 -0.036136158 0.033889193
-0.0007313944 -0.055739906 0.0675182 -0.019335367 0.062558934 -0.015947482 -0.030189302 -0.048851382
0.01395487 0.02906516 -0.031782556 0.048842397 0.041611254 -0.033185594 -0.05878969 -0.018359812
-0.022601292 0.025079068 -0.041636933 -0.020220434 -0.06867158 0.020139612 -0.012400851 -0.014028063
-0.062415574 -0.040442426 0.016775446 0.07028533 0.041686926 -0.003805566 -0.06109207 0.050497178
-0.019176902 -0.015449903 0.055344585 -0.05667311 -0.05536414 -0.076231934 -0.06642003 -0.03400986
-0.024373282 -0.016125688 -0.027254798 -0.043711662 -0.018661568 0.007622064 0.03765229 -0.02780006
-0.027921403 0.049767934 -0.030481383 -0.039819073 -0.015210027 -0.05691303 -0.017710201 -0.0002648622

sequential_2/conv2d_2/BiasAdd/ReadVariableOp f4 [64]
00000000: b920 10bd 4d96 3abc f67f 41bc cca5 3ebd
00000010: 6e42 74bb cc67 56bd 8d23 5ebc 7212 64bc
00000020: fa48 ab39 7e04 ad3a 02f5 4bbc 6583 21bd
00000030: 5ed3 edbb bc84 573c ca76 35bd ed74 fabb
00000040: 879a 45bd f1e2 76bb 4d96 f739 b1f1 37bd
00000050: 26cf 4bbc 3c7a 4dbc 2d2d b93c e15a 9739
00000060: 4c76 e9bc 9c05 0e3c 305c 81bc b5b5 dfbc
00000070: 2acc aebc 4f9f 54bd 9b52 e5bb 07c2 edbc
00000080: dafa 7dbd 626b 35bc df7d 3d3d 396f 09bc
00000090: 9106 74bc 218f 963c 25bb bc3c 80f3 e5ba
000000a0: d6d7 bfbc 036b b8bc b995 27ba 446d 1dbc
000000b0: ac7f 59bd 2b26 bdbc 0458 d5bc 374c 883d
000000c0: adbe ce3c 2c23 47bd f9b1 63bc e5b0 61bb
000000d0: b852 f73c 93e3 77bd 0dd1 3abd ac10 e8bc
000000e0: 366e c2bb 955d 85bc 99d0 783d b359 2cbd
000000f0: cc62 f93c a0ad 883d 01ef 6bbd 1d36 ed3c
-0.035187457 -0.011388374 -0.011810293 -0.046544835 -0.003727104 -0.052345082 -0.013558281 -0.013920413
0.00032670033 0.0013200191 -0.012448551 -0.03943195 -0.007257863 0.013154205 -0.04430274 -0.007643333
-0.048243072 -0.0037671889 0.00047223494 -0.04490823 -0.012439525 -0.01254135 0.02260455 0.00028868674
-0.028498791 0.00866833 -0.015791029 -0.027308324 -0.021337587 -0.05190974 -0.0069983727 -0.029023184
-0.06200681 -0.011072965 0.04626262 -0.008388334 -0.014894144 0.018378796 0.023038456 -0.0017543882
-0.023418348 -0.022511965 -0.0006392855 -0.0096085705 -0.053100273 -0.023089489 -0.026042946 0.06655162
0.025237406 -0.048617527 -0.013897412 -0.0034437713 0.03019081 -0.060519766 -0.045609523 -0.028328262
-0.0059335483 -0.016279975 0.06074581 -0.04207773 0.030442618 0.06673741 -0.05760098 0.028956467

sequential_2/conv2d_3/BiasAdd/ReadVariableOp f4 [64]
00000000: d1c4 f03a bd96 393d 66d1 0d3c b854 2c3d
00000010: f1a3 b7bc 4834 6cbd e123 38bd 17d6 41bc
00000020: 83cf f7bb d294 a3bc 4943 d2bc 772d d6bc
00000030: bab8 9d3b b5f1 5bbc 6752 933c b0c9 1fbd
00000040: 2dab f4bc e3a9 ae3a 5261 2cbd b18f 9abc
00000050: b6e5 22bc 7371 98bc 1cae 0d3c f5ee 803d
00000060: 77fa acbd aff5 80bc 989a 73bc 89c8 0b3b
00000070: ba90 ce3b 5b88 393c d0d2 933c 024c 88bd
00000080: 255b 623d a4e0 c03b d4af ddbc 7f4b 15bd
00000090: 80e5 94bb c3d2 32bd 7bb4 4ebc dc48 6eba
000000a0: 2ca9 473d 1ab0 153d ae00 113d 8883 76bb
000000b0: d32e 83bc 60c0 bfbc e001 c93c 6ea4 91bc
000000c0: 63a6 943b b3f0 dbbb 8bd9 c83c 8427 ab3b
000000d0: 2065 843c 03a4 103d bd62 f83c e97c bdbc
000000e0: c67d 7cbc 4ccc eabb f00c e4ba 0061 cfbc
000000f0: 7627 063d fc6e 59bc de5d 44bc 03b6 c83c
0.0018369203 0.04530977 0.0086558815 0.04207298 -0.02241704 -0.057667047 -0.04495609 -0.011830828
-0.007562579 -0.019968424 -0.02566685 -0.026144726 0.004813281 -0.013424327 0.017983628 -0.039010704
-0.02986678 0.0013325777 -0.042085 -0.018867346 -0.009942463 -0.018608784 0.008647468 0.062955774
-0.0844621 -0.015742151 -0.014868401 0.0021329245 0.006303874 0.011324014 0.01804486 -0.06655122
0.055262703 0.0058861542 -0.02706138 -0.03644895 -0.00454396 -0.04365803 -0.012616272 -0.00090898364
0.04874532 0.036544897 0.03540104 -0.003761502 -0.016013538 -0.023407161 0.024537027 -0.017778601
0.0045364364 -0.006712043 0.024517795 0.0052232165 0.016161501 0.035312664 0.03032052 -0.02313085
-0.015410846 -0.0071654674 -0.0017398875 -0.025314808 0.032752477 -0.01327109 -0.01198527 0.024500852

sequential_2/conv2d_4/BiasAdd/ReadVariableOp f4 [64]
00000000: a9f0 febb c297 0fbd f97d 90bc f98f 89bc
00000010: bfe9 843d 112c 333b 8f95 a83c f361 863c
00000020: ae6c 9bbc af1d c43c 864f 93bc 601e 7dbd
00000030: aea7 78bc fd5d 8dbd 9c97 ae3c a0fe b7bc
00000040: 028a 89bc 3a4c 03bd 1454 36bd 8b34 d53b
00000050: 414b 59bd 6ae7 7cbc dfaf e6bc e6bb 623d
00000060: ccee 54bc 3e78 273d 6202 0bbd a864 bdbc
00000070: 53ff 443d 6343 ff3c 9e72 96bc bb52 7dbc
00000080: 9899 20bd 0fd0 163d 3685 80bc 00f3 093c
00000090: 3464 4fbd 6123 23bd 7a3d ea3c e0c9 a73d
000000a0: 7813 fb3b e2af 143d 6796 20bd bb7b 26bd
000000b0: c17d 3a3d b149 043b 3500 4d3d 54b5 db3c
000000c0: eeb1 32bc f47c 09bc 3e3c b8bc 32a4 233d
000000d0: 49a5 a03c ee99 38bd 95f0 213c 0cf7 783d
000000e0: 5fe6 ea3c b0e3 35bc 4fd2 3b3c a78f dabc
000000f0: 83d2 25bc 11a2 663c 9303 343d 20e8 1dbd
-0.007780154 -0.035056837 -0.017638193 -0.016792284 0.06489896 0.0027339498 0.020579128 0.016404128
-0.018972721 0.023939935 -0.017982256 -0.061796546 -0.015176697 -0.069026925 0.021312527 -0.022460282
-0.01678944 -0.032055117 -0.044513777 0.0065065078 -0.053050283 -0.015436033 -0.028160034 0.055354975
-0.012996387 0.040886156 -0.03393782 -0.023119286 0.04809506 0.031160062 -0.0183652 -0.015461619
-0.03920898 0.036819514 -0.01568852 0.008419752 -0.05063267 -0.03982866 0.028593767 0.081928015
0.007662233 0.036300547 -0.039205935 -0.040645342 0.045530085 0.0020185525 0.050049026 0.026819862
-0.01090668 -0.008391608 -0.022489663 0.03995151 0.019610064 -0.045068674 0.009884019 0.060782477
0.028674303 -0.011101648 0.011463716 -0.026679827 -0.010120991 0.014076726 0.04394872 -0.03855145

sequential_2/conv2d_5/BiasAdd/ReadVariableOp f4 [64]
00000000: 8976 a03d 35c9 4cbc 0c08 b03d 1517 923c
00000010: 99b5 4b3d 597c 18bc aca0 3dbc a6a3 db3c
00000020: 04c6 933c de94 a83c 0192 e1bc c280 853c
00000030: 582f c43c b961 c63c 429a 7abc 4b9b b3bc
00000040: 50fa 98bc 9df6 0a3d 7898 033c bca1 4c3b
00000050: 76ee 00bd a424 f53c 908c 09bc 82d6 8e3c
00000060: 686e 25bb a9a7 eb3c 46e1 28bc 52f1 053a
00000070: f461 9f3c 4c2f 473d 21e1 303b 9c5d 113d
00000080: 91f9 8f3c 9182 97bc d877 ab3c 5b35 0ebd
00000090: 1a99 8ebc 49f3 3a3c 9912 38bc 8227 51bc
000000a0: b14f 7a3c b093 2b3d e5e2 7d3b 34e0 13bc
000000b0: 2f3a 5e3d 33f1 053d 2c08 d9bc e44c 31bb
000000c0: fbba 11bd 463e a03c eaa2 323c fbe6 12bd
000000d0: cf57 b43c fa54 42ba 572e df3b 19a3 1bbd
000000e0: bc9b f63c d6eb a2bc d210 43bc e9d3 2f3b
000000f0: ef60 a93c dc58 2bbc 5551 6fbc 7741 73bc
0.07835109 -0.012499143 0.08595285 0.017833272 0.049733732 -0.009306991 -0.011573952 0.026811432
0.018038757 0.020578798 -0.02753544 0.016296748 0.023948357 0.02421652 -0.015295567 -0.021924635
-0.018674046 0.033926595 0.008031957 0.003122433 -0.031477414 0.029924698 -0.008395329 0.01743627
-0.002524281 0.02876647 -0.010307616 0.0005109507 0.019455887 0.04862909 0.0026989656 0.035489663
0.017575057 -0.018494876 0.02093117 -0.034718852 -0.017406989 0.011410543 -0.011234903 -0.012765767
0.015277789 0.041888893 0.0038739976 -0.009025622 0.054254707 0.03270073 -0.026493154 -0.0027053887
-0.03557871 0.019560944 0.0109031 -0.03586481 0.022014527 -0.0007413175 0.006810944 -0.03799734
0.030103557 -0.019887846 -0.011905866 0.002682919 0.020676104 -0.010458197 -0.014606793 -0.014847151

sequential_2/conv2d_1/Conv2D f4 [64, 3, 3, 32]
00000000: 3708 923d 38b8 d6bd 5ab8 943d 682e 8dbd
00000010: 1bc6 d2bd f20a c5bc dc45 613d 99cb 34bd
00000020: bf74 273d 62ad 95bc 553e 50bd 5925 663d
00000030: 6a05 683d 53ff 87bd 157b 8abd 8c7b 08bd
00000040: e1b4 88bc 4b31 95bd 9695 6bbd 0552 e03d
00000050: 0553 dbbc 9420 d63c 596b 853d be14 87bd
00000060: 8aee 8c3c 920d df3c 0df5 f0bc 52c6 4abb
00000070: 70b8 a73d 529d b4bd 37f0 54bd ec05 963d
00000080: 71cf bb3d c1ec 42bd 7276 473d 8902 b63b
00000090: 3450 23bd 77fc 5bbd f525 433d 6864 7b3b
000000a0: 39a0 40bd 81de 1ebd 27a4 c7bd f2ff 8c3d
000000b0: 181c 223d d1b7 5f3c 5dce 69bd 9baf b7bd
000000c0: 0efd e2bc a349 dabd 276a 153d 8edc 983d
000000d0: f301 12bd 6c60 023d 3e75 033d 51e4 06bd
000000e0: 1a6c cdbd 7eeb 86bd e31a 3abd 6cac 543b
000000f0: b6f4 da3d 7816 4f3d 23a8 a0bd 9682 c33b
00000100: 1047 b53d f01d 23bd 2f25 963d cbae 993d
00000110: ca8a 133d 3566 4cbd 823c 7abd 5593 ffbc
00000120: 9677 86bc 6aa6 88bc 8b66 b5bd 5225 783d
00000130: d325 2cbc e366 09bb e6df 4fbd 107b debd
00000140: f870 7d3d 6cf0 b5bd ec49 163d 9bb1 7c3c
00000150: 21e8 69bd bdf8 c7bd c7fb 983c 6146 033d
00000160: 2725 47bd a23d 30bc 1a38 993c 4b8d 913c
00000170: 7aa0 2abd 06f5 bbbd 7e28 643d 25ba f43d
00000180: 296b d13d 7486 b5bd 5457 6c3d cd90 9c3d
00000190: bd9c af3c eb3a b0bd b29c b2bd e318 893d
000001a0: 2352 c7bc fd05 51bd 6559 bbbd 1603 813d
000001b0: 1a57 a7bd 1657 8fbd 620e 323d 3162 04ba
000001c0: bc94 89bd 7ee0 43bb b818 e4bc 3e74 1a3e
000001d0: aa66 d2bd e7c4 063d 16d2 a8bd 7168 e5bd
000001e0: 0cd3 e7bd 0c60 013d 013b d4bd 8260 9d3d
000001f0: b15a 963d 3aa0 19bc 1e51 10bd f645 f13d
00000200: 7078 6e3d fd01 aebd 47ed 13bd ef2c fbbc
00000210: 155c afbd a32d 2ebd 802f 1f3d c7bb 9c3d
00000220: 62e7 cd3c d449 a7bc d872 9c3b 4fb3 913d
00000230: 233a 893d a7c7 b1bd 167d 33bd ae7f 79bd
00000240: 46d7 c3bd 8ae7 5fbd 20a7 33bd 2fc9 243e
00000250: 2695 56bd 2fe4 c2bc a0b0 343d 36bc e93c
00000260: 29fb fabc c9dd 2dbd f905 7bbb 2239 7abc
00000270: 8351 ccb8 5d0d 2d3c c1e3 c0bd 45eb 133e
00000280: e365 6c3d 0926 98bc 50ad f83d 1600 ae3b
00000290: 5e76 b7bd 0c9c 77bd 0e03 a0bd cc30 18bd
000002a0: 2cf1 1e3c f023 f0bc 6880 753d 89a9 1e3c
000002b0: 7cce 4bbd b861 693c a022 82bd aa2f 64bd
000002c0: 7129 2a3d 85bc 4fbd f62d c3bb ed6e b23d
000002d0: f1fc e8bd 6c3f 2e3c 0d8e 64bc fc5c 4fbd
000002e0: e66b 0cbe cb3a 873c 197b 56bd 19fa a6bd
000002f0: 398a 8a3d 7e54 023d 3a5a bebd 0746 ffbc
00000300: 5aaa 923d 3a58 d2bc e355 b5bc 6c48 f2bc
00000310: 6fc1 c1bd def0 253c 14f3 ab3c 8d2b b4bc
00000320: d01b 83bc bba9 103d dc44 96bd a53a 223d
00000330: 2d41 86bd 2233 253d 4081 d4bc 4317 b6bc
00000340: 0dd8 44bc 5a84 3f3c eb73 06be 3d09 a4ba
00000350: 4cb8 fbbd 6423 fd3c db71 4ebd 1aa9 9dbb
00000360: 8a60 47bd fac7 0b3c 6102 c1bc 2ec1 4a3c
00000370: 0d2b eb3d 9734 a5bc 29b6 92bd 4c67 653d
00000380: 0110 dd3d 9d56 acbd 8cb1 3e3d 8156 313d
00000390: b573 37bd 14fa 483d aa35 ddbd a375 cf3c
000003a0: 1844 d73c 58b8 30bd 8fea db3b 0c21 b63d
000003b0: 85be 5ebc b2e2 d93c 1d67 28bb c722 23bd
000003c0: b951 853d 6976 863a ec9f 29bd 1800 123c
000003d0: a121 eb3c 1cc4 563d 26e6 3cbd 53b4 363d
000003e0: 01a2 8cbd 039c 94bd 6ff1 ed3c 5276 fc3b
000003f0: f92c b03d b02d 88bd 80e7 2b37 329e 823c
0.07130473 -0.10484356 0.07261725 -0.06893617 -0.10291692 -0.02405307 0.054998264 -0.04413948
0.040882822 -0.018271152 -0.050840694 0.05618796 0.05664579 -0.06640496 -0.06761757 -0.03332095
-0.016687812 -0.072847925 -0.057515703 0.10953144 -0.026772985 0.026138581 0.065146156 -0.06595753
0.017203588 0.02722815 -0.029413724 -0.0030940962 0.081894755 -0.08819069 -0.0519869 0.07325348
0.09170426 -0.047589067 0.048696943 0.0055545014 -0.03987141 -0.053707566 0.04764362 0.0038359407
-0.0470278 -0.038786415 -0.097481064 0.06884755 0.039577574 0.013654665 -0.05708157 -0.08969041
-0.027708557 -0.10658576 0.036478188 0.074639425 -0.03564639 0.031830236 0.032094233 -0.032932583
-0.10030384 -0.06587885 -0.045435797 0.0032451404 0.10691206 0.050558537 -0.078445695 0.005966495
0.08851445 -0.039823472 0.07331311 0.07504042 0.03602103 -0.04990216 -0.06109286 -0.031198183
-0.016414445 -0.016680915 -0.08857449 0.060582466 -0.010507065 -0.0020965866 -0.050750636 -0.10863316
0.061875314 -0.088837475 0.03669159 0.015423204 -0.05710614 -0.0976424 0.018674744 0.03204954
-0.048619416 -0.010756882 0.01870351 0.017767569 -0.04165695 -0.09177594 0.05570268 0.11949567
0.10225517 -0.088635355 0.05770047 0.07644806 0.021437043 -0.08604988 -0.087212935 0.066942
-0.024331158 -0.0510311 -0.0914791 0.06299417 -0.0817091 -0.06999032 0.043470748 -0.0005050032
-0.06717822 -0.0029888446 -0.027843818 0.15083405 -0.10273488 0.032902624 -0.08243196 -0.11201561
-0.11319551 0.031585738 -0.103628166 0.07684423 0.07341517 -0.00937658 -0.03523361 0.11780922
0.058220327 -0.08496473 -0.036114957 -0.030661074 -0.08562485 -0.04252399 0.03886366 0.07653003
0.025134746 -0.020420946 0.0047744326 0.071142785 0.06700542 -0.08680659 -0.043820463 -0.06091278
-0.095625445 -0.054664172 -0.043860555 0.1609237 -0.052388333 -0.023790447 0.044113755 0.028532129
-0.03063734 -0.04244784 -0.003830312 -0.015272411 -9.742661e-05 0.010562268 -0.094184406 0.14445217
0.057714354 -0.018572824 0.12142432 0.005310069 -0.089581236 -0.060451552 -0.07813083 -0.03715591
0.009701055 -0.029314011 0.05993691 0.009683975 -0.049757466 0.014244489 -0.063542604 -0.05570952
0.041543428 -0.050716896 -0.0059564067 0.08712564 -0.1137637 0.010635238 -0.013949883 -0.050625786
-0.13713035 0.016507527 -0.05236349 -0.08153171 0.06764645 0.03181886 -0.09294553 -0.031161321
0.07161398 -0.025676835 -0.02213568 -0.029575549 -0.09460723 0.010128228 0.020989932 -0.021993423
-0.016004473 0.035318118 -0.07337353 0.03960671 -0.065554 0.040331967 -0.025940537 -0.022227889
-0.012014401 0.01168927 -0.13130157 -0.001251496 -0.12291011 0.030900665 -0.05040155 -0.0048114182
-0.04867605 0.008531565 -0.023560705 0.012375159 0.11482821 -0.020166678 -0.071636505 0.056006715
0.10794068 -0.08414958 0.04655604 0.043295387 -0.04478808 0.049066618 -0.10801251 0.025324648
0.026277587 -0.043144554 0.006711311 0.08893022 -0.013595228 0.026597355 -0.0025696226 -0.039828088
0.06509728 0.0010258678 -0.04141228 0.008911155 0.028702559 0.05243312 -0.046117924 0.044605564
-0.06866837 -0.072563194 0.029045789 0.0077045346 0.08602328 -0.06649339 1.0246295e-05 0.015944574

sequential_2/conv2d_2/Conv2D f4 [64, 3, 3, 64]
00000000: d155 623d c139 a93d 369b 6ebd c04f 7b3c
00000010: 9861 6b3d 6b97 59bb f5f3 273d f3e4 c73c
00000020: 5481 003c 5ec3 26bd 06c6 b4bd 503c a5bb
00000030: 4889 0ebd 8eca 3b3d 5c6b dbbc cfc6 ebbc
00000040: 4acb a0bd 5a93 2bbb 97f2 4abd ae47 053d
00000050: 8ce7 98bb 027e b8bd 0cf9 723d 5b88 3a3d
00000060: 62b0 06bd eec8 5bbd 641e b8bd 4f97 0cba
00000070: 9d53 fc3a dd16 0ebd ea41 6cbd d2c9 6fbd
00000080: 1919 043d 9999 193d f158 0b3d d29b 293d
00000090: aba5 09bc 36f8 993b acf9 753d 79ed f13c
000000a0: 305c c2bb 6ce3 68bd cbdd efbc 5a57 e13c
000000b0: 6e02 71bc c878 633d 2e6f 98bc 21a1 94bc
000000c0: 3d68 f6bb cbc7 693d 200a 12bc 2774 213b
000000d0: e8a9 d93c 2fd2 413d 9302 d0bd c335 813c
000000e0: 68a2 48bd c0d5 4c3d a377 2abd f20d 123c
000000f0: 3d69 15bd 3140 c5bb 3e0d e9bc 5b47 4ebd
00000100: 300a b2bc f7e6 533d d6d0 a53b 7a92 83bd
00000110: 776a 92bd 10f7 173d 5d21 1ebd 8dc7 65bd
00000120: 8684 5d3d 2142 543c 2a33 5fbd 4858 773d
00000130: 1b84 4c3d efd4 4f3d 10d7 e9bc 251e dc3c
00000140: 6cad f53c c349 ef3c 8d1f 593c fd82 613d
00000150: 5915 873c b16f da3c 1c3e 8bbd b80b 86bd
00000160: 9532 d5bc 050c 573d f6a1 d4bd 2d85 8abd
00000170: 0b82 98bd 12f4 7ebd 4860 52bd 32ee 07bd
00000180: 5d2a edbb a945 4dbd 4541 abbd c0de 083d
00000190: d32d 013d c833 f63b 0bd8 87bd c8d8 1fbd
000001a0: 3054 b4bb 9948 f6bb e043 113c 534a dabd
000001b0: 4500 7f3c ce1c 23bd 4592 58bd 22a1 873b
000001c0: 08f0 85bb afaf e83c 89c2 45bc d161 9fbc
000001d0: 63b9 853d 874e 273d 4d5e 13bd 9fd3 b239
000001e0: 8f46 933c 8c54 52bd 5bc3 7abd 18fa 4bbc
000001f0: c990 7a3d c4d0 82bd 6e79 3abc 537b 30bd
00000200: 7434 62bd 4b94 8abb 547b c2bc 8703 a7bd
00000210: 7335 f63c 26da 5cbd fba0 973c ff62 17bb
00000220: efd3 f03c f3c8 c13b 7726 30bd 9c54 f83c
00000230: af4a b1bc 613e 7cbd f66a 6bbc 4e17 32bd
00000240: 9110 3abc 6eeb 6bbd 19c2 443c 7c53 6bbd
00000250: c648 86bd 6bfe d93c 6f84 9fbd 0d9b e93c
00000260: 8438 193c 2931 1b3d 3a88 a3bc 0095 283a
00000270: 7c00 1c3c 9eb3 d73c 051c 4fbd a0b2 c83c
00000280: 4c8e b23c 0384 663c ce84 1dbc f7ae 63bd
00000290: 9347 2b3d 13e6 9ebc f7ec 403c 045d 303c
000002a0: 7cd2 3b3d c716 583c 2ee2 ba3a 09a0 aebd
000002b0: 35c2 cd3b 419a 6fbc da4c 0bbd bb48 833c
000002c0: 5626 5abd 63e2 67bd ecbe 01bc d7e8 8a39
000002d0: 655e b93b 312b a3bd 3308 abbd 2fe0 d5bd
000002e0: cee1 37bd afd7 4ebd a9c8 90bc 25b5 98bd
000002f0: 9c19 36bd a0f9 82bd aea5 d7ba ffe5 353d
00000300: c987 273c 848a 24bc e6ce 363c 1005 99bd
00000310: 5459 8dbd 320b 0ebd 0ca1 27bd ce32 ca3c
00000320: 33d9 8bbd 359b 19bc 6f47 563b 8c06 843d
00000330: af96 b13c 2348 fabc 96e7 9e3c 9c0e 46bd
00000340: 66af 5ebd a720 55bd 8c19 d5bb 42c2 a9bd
00000350: c229 8ebd 1c57 7ebd 12bc b9bd c79b 4e3d
00000360: c4ea 6bbc a632 7d3c 6884 b5bd 2d73 18bc
00000370: c7e3 47bd 557f 6fbd 32e1 a8bc 232d 153c
00000380: 9db3 1dbc bbfb 81bd e885 85bc 07bb 323b
00000390: 1641 a53c f647 1bbd a688 443d c805 473d
000003a0: 11b1 4bbd 0afa 97bc c806 53bb 894e a3bd
000003b0: 4fa7 90bc ea52 223d da77 61bc 274b 0e3d
000003c0: 1c6b 81bd d937 61bc 8db4 b03c cc6a ba3c
000003d0: 4464 973d 77b1 2abd 6972 c5bd d4de d9bc
000003e0: 2c9d a93c b8b9 c2bd b5eb 1abd 7b0f a13c
000003f0: 3afb 58bd 39a5 fc3c 5283 9dbc 0a74 c6bd
0.055257622 0.08262969 -0.05825349 0.015338838 0.05746612 -0.0033201824 0.04100414 0.024401164
0.007843334 -0.04071366 -0.088268325 -0.00504259 -0.03479889 0.045847468 -0.026784591 -0.028781323
-0.07851274 -0.0026180358 -0.049547758 0.032539062 -0.0046662744 -0.09008409 0.05931954 0.045540195
-0.032883056 -0.05365842 -0.089901716 -0.0005363123 0.0019250993 -0.034689773 -0.057680048 -0.05854208
0.032250497 0.037499998 0.034020368 0.041408367 -0.008401315 0.0046987785 0.06005256 0.029532181
-0.0059313998 -0.05685751 -0.029280564 0.027507473 -0.014710052 0.055535108 -0.018607702 -0.018143238
-0.0075197504 0.057075303 -0.008913547 0.0024635883 0.026570275 0.047319587 -0.10156741 0.015772706
-0.048983008 0.050008535 -0.041618 0.008914458 -0.036477316 -0.006019615 -0.028448697 -0.05036102
-0.021733373 0.051733937 0.0050602956 -0.064244226 -0.07149213 0.03710085 -0.038606036 -0.05609851
0.054081462 0.0129552195 -0.054492153 0.060386926 0.049930673 0.05074018 -0.028544933 0.026869843
0.02998992 0.029209977 0.013252151 0.05505656 0.016489672 0.026664587 -0.06798956 -0.06545204
-0.026025096 0.052501697 -0.10382454 -0.067636825 -0.07446679 -0.062244482 -0.051361352 -0.033186145
-0.007237716 -0.05011526 -0.083620586 0.033415556 0.031537842 0.007513497 -0.06633004 -0.039025098
-0.0055032 -0.0075159785 0.00886628 -0.106587075 0.015564029 -0.039822392 -0.05287387 0.0041390816
-0.004087452 0.028404085 -0.012070307 -0.019455822 0.065295 0.040846374 -0.035978604 0.00034108476
0.01797798 -0.05135016 -0.06122146 -0.012449764 0.061173234 -0.06387475 -0.01138149 -0.04308636
-0.055225804 -0.0042291037 -0.023740448 -0.0815497 0.030054783 -0.05391898 0.018509379 -0.0023099778
0.029397933 0.0059138476 -0.043005433 0.030313782 -0.021642057 -0.061582927 -0.014368763 -0.043479256
-0.011356489 -0.05759757 0.012009167 -0.057452664 -0.06556849 0.026610574 -0.077889316 0.028516317
0.009351853 0.03788868 -0.019962419 0.0006430894 0.0095216 0.026330765 -0.05056383 0.024499238
0.021796368 0.01406956 -0.009614183 -0.05558678 0.041816305 -0.019396817 0.011775247 0.010764364
0.04585503 0.013189024 0.0014258081 -0.08526618 0.006279255 -0.014624179 -0.03400884 0.016025892
-0.053259216 -0.056612384 -0.0079190545 0.0002649489 0.0056570047 -0.079672225 -0.08351173 -0.1044315
-0.04489308 -0.05049866 -0.017673807 -0.074564256 -0.044458017 -0.063952684 -0.0016452575 0.044408794
0.010225245 -0.01004279 0.011157727 -0.07471669 -0.069018036 -0.034678645 -0.04092507 0.024682429
-0.06828537 -0.009375383 0.0032696386 0.06446561 0.021678297 -0.030551976 0.019397538 -0.048353776
-0.05436649 -0.052033093 -0.0065032896 -0.08289005 -0.069415584 -0.062094793 -0.09069075 0.05044153
-0.014399234 0.01545397 -0.08863145 -0.009304804 -0.04880121 -0.058471043 -0.020615194 0.009105
-0.009625343 -0.06346842 -0.016299203 0.0027272122 0.020172637 -0.037910424 0.04798188 0.048589498
-0.04972941 -0.018551845 -0.0032200087 -0.07973964 -0.017657904 0.039629854 -0.013761485 0.03473964
-0.063192576 -0.013746225 0.021570468 0.022756003 0.07392171 -0.04167315 -0.09640963 -0.02659551
0.020704828 -0.09508079 -0.037822444 0.019660702 -0.052973963 0.030840503 -0.019227657 -0.096901014

sequential_2/conv2d_3/Conv2D f4 [64, 3, 3, 64]
00000000: 3206 6a3d bfd7 78ba 8f8c 8b3d 2c5e 243c
00000010: 47ea f0bc 74ee 923c 750c 6fbd 96aa 5ebd
00000020: 3953 a03c 73f4 d238 6353 4abd 97e8 bcbd
00000030: 8dec 0fbd f09d 6e3c 006d c3bd 8f04 283d
00000040: fdcf 95bc e4a5 4a3d 0910 61bd 15df 7b3c
00000050: e37a 2ebd 19f1 81bd 28be 95bd 20b6 733d
00000060: a0ee 24bb b3c4 06bc b714 423d 1e3d 2fbd
00000070: 538f 563d 1523 bf3c 6739 5fbd 4c64 353d
00000080: 1942 723d e0ea abbc f8c8 19bd e2bf 87bd
00000090: e538 3cbd 103c a6bb 3f2b 93bd 5541 60bd
000000a0: 056d 863d 945a 383d df21 803d 5393 d2bb
000000b0: 62f0 29bd 9865 883d 43ad 8e3d 7cbc e73b
000000c0: 23c2 543d effe 8fbd 8c57 383c 754d a03c
000000d0: 8f64 bfbc 15c7 c23a 4951 6d3d 991d 36bc
000000e0: 28d8 163d e009 79bd b639 4fbd 61ee 8cbd
000000f0: 6f45 b0bd 7f75 8bbd ef83 0cbd 99e3 84bc
00000100: c0b3 b43c 4bf0 9a3c decc 82bd 46fa 3c3d
00000110: dfb2 4ebd d5b7 7abd f536 9a3d f47f 833d
00000120: f7ea 5b3d 9613 98bd fb5d 443d a9c3 6bbd
00000130: 50d2 22bd f884 6d3d ac66 ddbd 7e17 81bd
00000140: 299b 09bd 1e02 643c f1d0 89bd bdde 64bd
00000150: 0433 04bc 5324 323d 22be acbb 2ff5 823d
00000160: 97b8 633d 4ab5 5f3c 67c8 15bd 3200 72bb
00000170: d1f9 87bd 4093 d73c 304b 20bc 136d 88bd
00000180: e5a7 193d 0afb 12bd 297c 8cbd c1a6 81bd
00000190: 458c 063c 294e 14bc feaa 47bc ee42 743d
000001a0: 61f0 b8bc bb4f bdbd 53ea 8fbd 1538 46bd
000001b0: 6ee2 19bd 4a0e 1f3d 97cf c63c 2dc6 70bc
000001c0: 6bd0 00bc 845c 04bd 71ef bebc 1fec 95bc
000001d0: b3ff 773d dbd9 113d 6eeb 973d c2b1 513d
000001e0: f8ee c63c a729 9ebb 4429 41bd 56ff c2bc
000001f0: ac32 75bd 0621 07bd 5c5b bc3c c4bf 94bd
00000200: a6eb 8e3d 4d18 0abd c3c3 803d c3a7 d23c
00000210: 5993 613d e7f2 96bc cdd3 803d fda2 3cbc
00000220: b3e2 6a3c 7ceb 673d d59b b43c 3400 50bb
00000230: ab65 09bd 9f12 12bd 7d04 07bd d5d9 7a3d
00000240: 575f 2a3d 01a6 ca3b 2103 533a f510 3a3d
00000250: 5903 943d c6e9 7bbd 2e05 85bc 05e2 25bc
00000260: 0561 56bd 3a7a 253d 4df0 33bd 4954 353c
00000270: 0eaf b1ba a434 303c c54b 8bbd d6ec a3bd
00000280: 969f 5ebc 175b 4dbd b6b3 033d c4b6 75bd
00000290: 1df9 1f3d f6f5 d23c b086 acbc df83 18bd
000002a0: e1f3 6abc 594f 33bd fbe3 853d 61c9 ab3a
000002b0: 154e 8eba 1bb4 8abd d2ed be3b 9d3a 48bd
000002c0: bbcc f03b 0935 533d 9bf9 863d 332a 0f3d
000002d0: f59e 7a3d 8ee7 e5ba c660 d3bc 8fda 263d
000002e0: 5093 55bd e3f8 483d a4ed 5cbd eccf 4e3c
000002f0: 6519 91bd 323c 4abd 1cba 7cbd 5ad2 0f3d
00000300: 5980 16bc 9794 333d 0380 fabc a9ca 1bbc
00000310: af98 78bd ae00 33bd 72f5 253d 20f9 76bc
00000320: f4d7 7e3c 5ec4 6ebd 764a 533d 7f47 04bd
00000330: fd63 4dbd 15be 713d b52a 27bd d550 263d
00000340: af4c 7abd ecbf 68bd fd63 133c a4dc 163d
00000350: 9ff8 71bb f1d9 433d 2718 95bb 5430 ff3b
00000360: fbad 74bc a9bd b13c 575c c83c bd50 f5bb
00000370: fc08 6dbc 422f 103d bbcf b4bc b23b fa3c
00000380: fda9 b03c d9b2 313d 37fb 61bd 57dc 98bb
00000390: cb50 4cbd a25a 743c a879 863c 215f 7d3d
000003a0: 58b3 1ebd 7aa4 4fbd 307f 763d dd0d 6d3d
000003b0: 76e9 aaba 673f 8a3d 65f9 f9bc cdae 6a3d
000003c0: e787 91bd fe81 073d cf8a 0ebd 132c 05bd
000003d0: 43da 4d3d 6b40 3d3d 3e7f 3ebc d6cd 80bd
000003e0: 6b16 5abd b63a f2bc 7dff 22bc 7ab4 053d
000003f0: 75ba a93b b34b 833c 61f3 f03c 3940 2dbd
0.057134815 -0.0009492598 0.06813919 0.010032218 -0.029408587 0.017935969 -0.05836149 -0.054361902
0.019570934 0.000100591125 -0.04939593 -0.092240505 -0.0351377 0.014564022 -0.095422745 0.041019972
-0.018287653 0.049474612 -0.054946933 0.015373011 -0.042597663 -0.06344814 -0.0731166 0.05949986
-0.0025166646 -0.008225608 0.047383036 -0.042782895 0.05238278 0.023332158 -0.054498103 0.044285104
0.059145067 -0.02098602 -0.037545174 -0.066283956 -0.045952696 -0.005073078 -0.07185983 -0.054749805
0.065637626 0.045008257 0.062564604 -0.006426254 -0.041489013 0.066600025 0.06966641 0.0070720296
0.051942956 -0.070310466 0.011251342 0.019568184 -0.02336338 0.0014860356 0.057938848 -0.011115455
0.036827236 -0.060800433 -0.050592147 -0.06881405 -0.086069934 -0.0680952 -0.03430551 -0.016221808
0.022058368 0.018913409 -0.063867316 0.046137117 -0.050463554 -0.061210472 0.075300135 0.064208895
0.053690877 -0.07425611 0.04794119 -0.057559643 -0.03975135 0.057988137 -0.10810599 -0.06303309
-0.033595238 0.01391652 -0.067293055 -0.055876482 -0.008068804 0.043491673 -0.005271689 0.06394421
0.05559596 0.0136540625 -0.03656807 -0.0036926386 -0.066394456 0.026315331 -0.009783551 -0.06661429
0.037513632 -0.03588394 -0.06859619 -0.06330634 0.008212154 -0.009051838 -0.012186764 0.05963414
-0.02257556 -0.09243723 -0.07027116 -0.048393328 -0.037569456 0.038831986 0.024268908 -0.014695686
-0.007862191 -0.032314792 -0.023307534 -0.018301068 0.06054659 0.035608154 0.074179515 0.051194914
0.024283871 -0.0048267427 -0.047158495 -0.023803394 -0.059862778 -0.032990478 0.022992782 -0.07263139
0.0697854 -0.03371458 0.062873386 0.02571476 0.055072162 -0.018426372 0.06290398 -0.011513469
0.014336276 0.05662106 0.022046963 -0.0031738402 -0.033544224 -0.03566229 -0.032963265 0.061242897
0.04159483 0.00618434 0.00080494775 0.045426328 0.07227201 -0.06150224 -0.016237821 -0.010124688
-0.05233862 0.040399767 -0.04393034 0.011067458 -0.0013556199 0.010754738 -0.06801561 -0.08004157
-0.013587853 -0.0501357 0.032153808 -0.059988752 0.039055932 0.025752049 -0.021060318 -0.037235137
-0.014340372 -0.043776844 0.065376244 0.001310628 -0.001085701 -0.06772634 0.0058266902 -0.048884023
0.0073486245 0.05156425 0.06590577 0.034952354 0.06118675 -0.0017540322 -0.025802981 0.040735777
-0.05214244 0.049065482 -0.05393757 0.012622815 -0.07084922 -0.049373813 -0.061700925 0.035112716
-0.009185874 0.04384288 -0.030578619 -0.009508767 -0.060692485 -0.04370182 0.040517278 -0.0150740445
0.015554417 -0.05829274 0.051584683 -0.032294746 -0.050144184 0.059019167 -0.040812213 0.04060443
-0.061108287 -0.056823656 0.008996007 0.036831513 -0.0036921871 0.047815267 -0.0045499983 0.0077877436
-0.014934058 0.021696882 0.024458094 -0.0074864314 -0.014467474 0.03520132 -0.02207171 0.030546043
0.021565432 0.043383453 -0.055171218 -0.0046649384 -0.049881738 0.014914187 0.016415432 0.0618583
-0.038745254 -0.050693966 0.06017989 0.05787455 -0.0013039547 0.06750374 -0.030514428 0.05729561
-0.071059994 0.033082955 -0.034800347 -0.032512736 0.05025698 0.046204012 -0.011627017 -0.0628926
-0.053244036 -0.029569011 -0.009948608 0.03264282 0.005179698 0.016027307 0.029412927 -0.042297576

sequential_2/conv2d_4/Conv2D f4 [64, 3, 3, 64]
00000000: d832 2d3c f9a0 65bd d27a 3d3c b610 dbbd
00000010: fcc9 ddba 7b47 393b f024 84bd c5b6 85bb
00000020: 1e4d a93c 8b64 2eba c6d4 f63b 2485 60bd
00000030: 2c32 da3c 7fc4 27bd 9b47 093c 42ef d0bc
00000040: fb56 bc3c f29a 9b3d cbdb 69bd c72f e73c
00000050: 0dbb 84bc 3f40 6f3c e6b4 863d 1464 f3bd
00000060: d78e 8b3d bfd9 523b 51d6 a9bd 1330 853d
00000070: cd62 253c 0b11 7c3c 3912 00be 0e1b dcbd
00000080: a932 4ebc ac53 253d 6d64 d3ba 2a44 f6bd
00000090: 5b34 68bc 6864 24bd 6508 813c 2b87 9dbc
000000a0: 6fb8 02be 5bcf a3bd f4e4 4a3d e3be a7bd
000000b0: 9043 93ba 542b a93d e92d 363d 3cef 5cbd
000000c0: 4d9f af3b 30aa 483c deb1 a63d af77 113e
000000d0: 8d2c 2ebd 68bb 81ba c06b 713c b168 a93d
000000e0: 1101 c33c 23d4 a53d db82 563d 1c55 843d
000000f0: 9b33 0ebe cc3b a5bc f818 88bb 8fee f93a
00000100: 6647 133c 9291 5ebd 5b15 1e3d e9f8 88bd
00000110: 92cf 923c 80b7 1cbd f434 a6bd 19ed 1d3d
00000120: 2496 b03d 2285 453d a839 a3bc 7440 ac3d
00000130: 4701 23bd c4e5 dfbb 69ab 913d b120 3e3d
00000140: 1d4b 593d 5dcf 3d3c 2622 82bd 7e4c 81bd
00000150: 6632 c13c 1b50 563d 48ba c23d 0fbf 7cbd
00000160: ecce 3d3d f84b a0bd 16ac 9f3d 0cb1 30bd
00000170: c1a6 6a3d c0d4 cf3c cc78 9cbd 5a03 a0bd
00000180: 82b8 203d 4a96 943c 2abe 75bd 9d9e 333d
00000190: 82f6 6fbd 57f2 a13c d110 8fbd a4f7 03bd
000001a0: c0e0 a1bd 4544 ecbc 7755 083b ab87 88bc
000001b0: 56c1 78bc dfe5 1cbb 7f07 82bc 676a a5bd
000001c0: 787d 88bd 2974 2dbb da87 f83a 300c 503d
000001d0: 6388 06bd ef7e 7b3c 97d3 32bc 3ee7 613d
000001e0: afc5 993d d259 2ebc 6cb6 2d3d 78cd 3d3c
000001f0: 4683 e7bb 4689 36bd d004 e1bb 89a0 7a3c
00000200: 62df db3a 9cd0 463b 38bb d8bb 72a6 26bd
00000210: 3c29 653d 7c86 3f3d a950 b13c 634f 3dbd
00000220: 95e3 9c3d 20ba 7fbd 6d84 aebc 8013 39bc
00000230: 4caf b7bd f541 6a3d 55ee b93d 6036 ae3b
00000240: 2160 a03d ace4 593d 97bc dc3c 9beb df3c
00000250: 03c9 0fbd 9ad9 07bd 70f8 3abd 9c3b dabb
00000260: 647d 083d b055 8ebc c931 6e3d 47ac 3a3c
00000270: c2ea 043d 6211 e13c f017 933d c8de ce3c
00000280: 78c7 1abd 674a 75bd ad91 3cbd 3686 89bd
00000290: cb6a f0bc 6f1c 91bd 432d bcbc d636 153c
000002a0: df78 503d 1735 663d db85 443d 6c46 863d
000002b0: 89f3 383c 464d 01bb 2cd9 6bbc 4585 fabc
000002c0: 1a54 8ebd 97b0 90bd 6d12 8ebd 3c0f b43d
000002d0: 0314 d1bc 7e6a ad3d ae5c 013e ea19 2d3d
000002e0: 580f 57bd c8a7 88bd 8d0d d6bc 714f eabb
000002f0: 2f16 453c f86d 103d 8243 e3bc 5081 783c
00000300: 9ec5 71bc f63e 773c 8a6b b53b 725f 413d
00000310: af14 34bd d313 a43c ae85 c4bd f0a5 9c3c
00000320: 174b 233b df72 14bd f9ca 95bd 3d4a d43d
00000330: fc67 1abe eb16 8c3b 218b 643d 6ff9 803c
00000340: 14a5 d23d 27bb 8a3d cf41 12be 10dd 563d
00000350: ae97 c6bd 39ae 7f3d b9bb 913d 180e 05bd
00000360: 0bdf c83d 306a a4bd bd98 e03c b36a 9d3c
00000370: 187e 44bd 7ec2 b1bd 3cc3 65bd 353a c8bd
00000380: acdd 86bd 98c9 9dbc f338 03bd 8fc6 f1bd
00000390: 40ac 58bd c0ed abbd af12 5dbd f7a8 633d
000003a0: 5c8d 173d d155 943c 0f6c 873d 39b4 f8bc
000003b0: e4e8 aabd fae0 493d c878 6d3d c6ad b0bd
000003c0: cfb7 49bd 7dce 733c eb5d 52bd 6fc7 12bb
000003d0: 713e 4b3d e60b 8fbd 1370 5bbc 53d3 5bbd
000003e0: 3e55 8e3d ed73 0c3d 073d b13c 3f7e 013c
000003f0: 79ae ebbd 6cad 433d 70ce fabd e999 f63c
0.010571204 -0.05606172 0.011564927 -0.10696547 -0.0016921158 0.0028271365 -0.06452358 -0.0040806257
0.020666655 -0.00066525553 0.007532689 -0.054814473 0.026635252 -0.040958878 0.0083788885 -0.025504712
0.022990694 0.07597913 -0.057094377 0.028221024 -0.016202474 0.01460272 0.065774724 -0.11884323
0.06814354 0.0032173244 -0.08292831 0.0650331 0.010094357 0.015384923 -0.12506951 -0.10747348
-0.0125853205 0.040363 -0.0016127952 -0.1202472 -0.014172639 -0.040134817 0.015751073 -0.019229492
-0.12765668 -0.07998534 0.049534753 -0.081907056 -0.0011235345 0.08260217 0.044477377 -0.05393909
0.0053595663 0.012247607 0.08139394 0.14205812 -0.042522956 -0.000989777 0.014735162 0.082719214
0.02380422 0.080971025 0.052370887 0.06461546 -0.13886873 -0.020170115 -0.004153367 0.0019068288
0.008989191 -0.054338045 0.038594585 -0.06688101 0.017921243 -0.038260937 -0.08115569 0.038556192
0.08622387 0.04822267 -0.019924954 0.08410731 -0.03979614 -0.00683281 0.07112772 0.046417896
0.05305015 0.011585084 -0.063541695 -0.06313418 0.023583602 0.05232249 0.095081866 -0.061705645
0.046339914 -0.0782699 0.07796495 -0.043137595 0.057287935 0.025370002 -0.07640228 -0.07813139
0.03923846 0.01813807 -0.059995808 0.043852437 -0.058584698 0.019768877 -0.06985629 -0.03221859
-0.07904196 -0.028841147 0.0020802894 -0.016666254 -0.015182814 -0.0023940725 -0.015872715 -0.08076935
-0.06664556 -0.0026466942 0.0018961385 0.050792873 -0.032844912 0.015350088 -0.010914705 0.05515217
0.07508408 -0.010641532 0.0424103 0.011584632 -0.0070652096 -0.044564508 -0.006867029 0.015297064
0.0016774947 0.0030336743 -0.006614115 -0.04068608 0.055947527 0.046759114 0.021644907 -0.046218287
0.07660595 -0.062433362 -0.02130338 -0.011296153 -0.08968982 0.057191808 0.09078661 0.0053165406
0.07830835 0.053196594 0.026945395 0.027334025 -0.03510381 -0.033166505 -0.045647085 -0.006659938
0.033322707 -0.017374843 0.058152948 0.011393613 0.032450445 0.02747411 0.071823 0.025252715
-0.037787884 -0.05988541 -0.046037365 -0.06715052 -0.029347798 -0.070855014 -0.022970801 0.009107312
0.05089652 0.056202974 0.047979217 0.06556401 0.011288532 -0.0019729896 -0.0143950395 -0.030581126
-0.06949635 -0.07064932 -0.06937108 0.08791968 -0.025522238 0.084675774 0.1263301 0.04226104
-0.052504867 -0.06672627 -0.026129508 -0.0071505834 0.012029215 0.035261124 -0.027742151 0.015167549
-0.014756588 0.015090695 0.0055365013 0.047210164 -0.043965038 0.020028984 -0.0959581 0.019122094
0.0024916583 -0.036242362 -0.073141046 0.10365722 -0.1507873 0.004275193 0.055796746 0.01574394
0.102853924 0.06773978 -0.14282916 0.052456915 -0.09696899 0.06242201 0.071158834 -0.032484144
0.09808167 -0.08028066 0.027416581 0.019215917 -0.047971815 -0.086796746 -0.056094393 -0.09776727
-0.06585249 -0.019261166 -0.032036733 -0.1180545 -0.052898645 -0.083949566 -0.053972896 0.05558106
0.037000045 0.018107327 0.066124074 -0.030359374 -0.083452016 0.04928682 0.057976514 -0.08626895
-0.04924756 0.014880774 -0.0513591 -0.0022396704 0.049620096 -0.06984691 -0.01339342 -0.05366833
0.069498524 0.034290243 0.021635545 0.007903635 -0.115078874 0.04777281 -0.12246406 0.030102687

sequential_2/conv2d_5/Conv2D f4 [64, 3, 3, 64]
00000000: fc18 21bd 9500 0fbc 9445 c7bc 75bd a0bc
00000010: 73dc 99bc 71f8 1fbe 823c 51bd 0731 9a3d
00000020: 9f0b 163d dd9d a0bd 45be f43c d17d e5bd
00000030: 36c7 863c 8cb3 103d 6602 213c ea7c 8e3d
00000040: 0d9a 61bd 0a69 e5bc dea9 8abd 1cb7 df3c
00000050: 9f31 3cbc 0ebe b33b ec30 793c 08bc aebd
00000060: d792 bebd 05c8 d7bc a58f fdbd ebe9 a6bd
00000070: 429f dfba 146e 4b3c 935c 21bd 67c1 aeba
00000080: db82 a6bb e856 3a3d 460b febd 7ed6 21bd
00000090: 48aa 7bbc 1b34 5b3d f9c9 44be 468e 123d
000000a0: c853 aa3c d534 f33c 0f76 9c3c 4478 7dbd
000000b0: 0db1 6cbd 7d0f 9cbd 56ec c83d 8749 f7bb
000000c0: 2ff9 92bd 6cd6 8ebc 0c41 4dbd f6a6 03bd
000000d0: 564d 58bc f501 a43d 421d dbbd 7273 473d
000000e0: b141 b13d 25fc 223d 882d 58be d754 c7bd
000000f0: e830 33bd 9cc0 5cbe 98c5 e9bd cbb0 c5bb
00000100: c614 20be 48fb 7d3d 4071 433c bf10 2e3d
00000110: 721a c9bd 3f00 c6bc 8d96 01be c44e cabc
00000120: 567e 78ba 6f42 02be e619 09bd 0236 303c
00000130: 09e1 6d3b bcc2 333d 44f0 76bc b20f 2e3b
00000140: 7467 51bd 4808 0a3c fd11 813d 5938 9a3d
00000150: deb0 a0bb 1719 693d 035d 80bd 7674 17bd
00000160: 1cbf 3dbe e39e a8bc af6b 79bd 1433 11ba
00000170: 463d c33c b389 a5bd 806d c7bc 5a5b 59bd
00000180: 9f79 383d ea20 f33d 6339 0ebe 139c 5f3c
00000190: f77c 113b 9ef6 1cbd 1d9b fdbd 07f6 01be
000001a0: b91c 88bd 0b86 5fbd a451 cc3d 1fc4 21be
000001b0: b7ec 97bd c031 88bd f520 1f3e 6dd4 02be
000001c0: f57c 14be 322e 1e3d c4e4 c5bc a03c 90bd
000001d0: d777 7ebd ec9c 6b3d edc0 10be 43df ea3d
000001e0: 566c 5fbd 277e 0a3d 28c3 18bd d393 afbd
000001f0: 43d4 6abb 1d55 98bc 15e1 1ebe 7863 453d
00000200: 1c9c 4bbe 0e61 3bbd 100c 81bd cc55 55bd
00000210: f011 d8bb a10a 88bd a8b7 22bd 3351 043e
00000220: de71 f23b ea27 e8bd 6959 22bd 7bc4 5a3d
00000230: 7a47 92bd 26d5 79bd 2c5a 1fbd dae9 893d
00000240: 62cf 7cbd 9caf c03c 75a2 58bc 507f 9d3d
00000250: d57d 6ebc e160 ee3a b9e8 3ebd fd53 bebc
00000260: 5da3 05be 59ae 04be b041 4abd 8907 c73d
00000270: 18fb ae3b 0483 f1bc 924b 8f3c ca06 773d
00000280: 179a 543d 61d9 e13d f627 aabd 531c abbd
00000290: 5e5c 063d c021 953c 275d 953d 491c 983c
000002a0: 2888 33bd 098c 0bbd 0353 513b 7200 2ebd
000002b0: ba5f da3d 47c5 f3bc b023 fb3d 03d1 80bd
000002c0: 41be a8bd bc3f 1b3c 60ff 613d 8ba2 5abd
000002d0: 8b01 a7bd 1cc3 68bd 8ba4 22bd 18d3 eb3d
000002e0: 0e5e cdbb 9b4f 2ebc ce90 543a 4e98 08be
000002f0: bcfd a1bb e6a3 b03d f8a1 a0bc 3e0c 15bd
00000300: 8a98 05be e767 6a3b f246 223c 8017 5d3d
00000310: b608 e8bc d40c 4c3d 5356 d5bd 005f 5a3d
00000320: 6503 f4bb f21f 0bbd b30d 7f3c a95d febc
00000330: f1af 82bd 23fd 2dbd ff3a 893d cffb f73c
00000340: ae6a 2a3d ab65 113d 57c6 a9bd fe8f dd3d
00000350: 5381 e1bd fc7d 3cbd fd7e 7c3d 4ea0 5dba
00000360: 83c5 a0bd 1044 6f3d 5e16 a4bc c077 80bd
00000370: 80ad f5bc f57d 133e 0a11 d73c c23a c23d
00000380: a375 7fbd 6d69 473c b8dd 89bb a987 babc
00000390: ab3e d53d 8b46 3d3d 4a54 05bd 6820 82bc
000003a0: 25af 3fbc 8874 ec3c e460 3bbc bb84 84bd
000003b0: e15a 9e3c c2d3 62bd b2bf ce3d 79f8 653c
000003c0: 39cf e13d d3b3 8e3d f73a 373d 6012 aabd
000003d0: aa2b e5bc 6ecb 453c 637b 1bbe 1c4a e93d
000003e0: bf9b c03d 5d99 92bd 2a64 c8bd 82e0 c83d
000003f0: 13f3 8ebc fc69 c3bd f4b5 dfbd 856b 853d
-0.039330468 -0.008728166 -0.02432517 -0.01962159 -0.018781876 -0.15622117 -0.051083095 0.075288825
0.036632176 -0.0784261 0.029875884 -0.11205638 0.016452413 0.03532748 0.009827232 0.06957419
-0.055078555 -0.028004188 -0.06770681 0.027308993 -0.01148644 0.005485303 0.015209418 -0.08531958
-0.09305351 -0.026340494 -0.12380914 -0.08150085 -0.0017061012 0.012416381 -0.039394926 -0.0013332785
-0.005081517 0.045493037 -0.12404494 -0.039511196 -0.015360422 0.05351649 -0.19217671 0.035780214
0.020791903 0.029688278 0.019099263 -0.061882272 -0.057786036 -0.07620142 0.098107025 -0.007546607
-0.07176434 -0.017436229 -0.05011086 -0.03214165 -0.013202032 0.08008186 -0.1069894 0.04869408
0.08655108 0.039791245 -0.21111119 -0.09732979 -0.043747813 -0.2155785 -0.11414641 -0.0060330383
-0.15632924 0.06200722 0.011928856 0.04249644 -0.09819497 -0.02417004 -0.12655087 -0.024695762
-0.0009479275 -0.12720655 -0.033471964 0.010755064 0.0036297461 0.043886885 -0.015071932 0.0026559648
-0.05112405 0.008424826 0.06302259 0.07530279 -0.0049038967 0.056908693 -0.062677406 -0.0369763
-0.18529934 -0.020583576 -0.06089371 -0.0005538922 0.023832928 -0.08082905 -0.024344206 -0.053065635
0.045037862 0.11871512 -0.13889079 0.013648051 0.002219973 -0.03832113 -0.12383101 -0.12691508
-0.066461034 -0.054571193 0.09976509 -0.1579747 -0.07418197 -0.06650114 0.15539916 -0.12776347
-0.14500792 0.038618274 -0.024156936 -0.07042813 -0.062126007 0.0575227 -0.14136095 0.11468365
-0.054546677 0.033811715 -0.03729549 -0.08573117 -0.0035832084 -0.018595273 -0.1551555 0.048190564
-0.1988377 -0.045746855 -0.06301129 -0.052083775 -0.006593935 -0.06642652 -0.03972593 0.129216
0.007398828 -0.11335738 -0.03963605 0.053410035 -0.07142539 -0.06099429 -0.038904354 0.06734057
-0.061721213 0.023521237 -0.0132223265 0.076902986 -0.014556368 0.0018186831 -0.04660866 -0.023233408
-0.130506 -0.12957133 -0.04937905 0.09718234 0.0053399913 -0.029481418 0.01749209 0.06030921
0.051904764 0.1102779 -0.08308403 -0.08355012 0.032802932 0.01820457 0.07293158 0.018568175
-0.04383102 -0.034069095 0.0031940348 -0.042480893 0.1066279 -0.029757155 0.12262666 -0.06289866
-0.08239413 0.009475645 0.055175185 -0.05337767 -0.08154591 -0.056826696 -0.0397077 0.11514872
-0.0062673157 -0.010639097 0.0008108736 -0.1333935 -0.0049435776 0.08625011 -0.019608483 -0.03638863
-0.1304647 0.0035767497 0.00990461 0.05397749 -0.028324466 0.04981692 -0.10416856 0.053313255
-0.0074466937 -0.033966012 0.015567231 -0.03105052 -0.063812144 -0.042477738 0.06700706 0.030271439
0.041605644 0.03549735 -0.082897834 0.1081848 -0.11010995 -0.046018586 0.061644543 -0.0008454368
-0.07850172 0.05841452 -0.020030197 -0.062728405 -0.029989958 0.14403518 0.026253242 0.094838634
-0.062368046 0.012171132 -0.004207339 -0.022769766 0.104123436 0.046209853 -0.032551087 -0.015884593
-0.011699473 0.02886416 -0.011436675 -0.06470629 0.019330444 -0.05537773 0.10095157 0.014036291
0.11025853 0.069678925 0.044733968 -0.08304286 -0.027974922 0.012072427 -0.15183787 0.11391088
0.09404706 -0.07158158 -0.0978473 0.098084465 -0.017449891 -0.09541699 -0.10923377 0.06514648

sequential_2/dense_1/BiasAdd/ReadVariableOp f4 [3]
00000000: a47e a5bc c3a3 0e3d 1bbf aabc
-0.020201989 0.034824144 -0.02084308

sequential_2/dense/BiasAdd/ReadVariableOp f4 [64]
00000000: 0efb 4f3d 1543 60bb bd55 58bc 3be1 ed3c
00000010: b05d 01bb bbe1 bbbc 4b8e e23b e5b1 c1bc
00000020: fae7 063d ab92 8b3c 4a78 0dbc 591e 09ba
00000030: c88d 5fbc e19e 5d3a cb4d 9cbc 2151 eabc
00000040: beda f4bb 00e2 3ebb de93 033d 5129 85bc
00000050: ff6f 3a3d 3fea 5ebc 1994 17b9 e72d 383d
00000060: 42c9 80bc 3ce7 51bc 775c b2bc 309e 9bbc
00000070: c5e4 b13b 1a10 413d 92b4 0b3b e1e9 4f3d
00000080: c3ea 0bbc 57a5 1b3d f5d1 b6bc 2820 52bc
00000090: 5ecf 7bbc 21a1 12bd 25d7 d6bb dea8 d83c
000000a0: beed 64bc f777 033d 5418 49bb a3ca 12bc
000000b0: a5fe 033c e618 003d 2d29 4ebb 26b3 40bc
000000c0: bbb9 283c 729a 27bb 48cd 65bc b1e9 8e3c
000000d0: cf2c cfbc 9c53 7dbc b5e6 0fbc 8d9b 3abd
000000e0: be6f c5bc 1c76 473d 5689 55b9 89b9 5cbc
000000f0: 6302 163d b613 b6bc afe6 b8bc e39e 17bc
0.050776534 -0.0034219672 -0.013204035 0.029038062 -0.001973968 -0.022934785 0.0069139353 -0.023644397
0.032936074 0.01703771 -0.008634636 -0.00052306574 -0.013644643 0.0008454156 -0.019080063 -0.028603138
-0.007472365 -0.0029126406 0.03212344 -0.016255053 0.045516964 -0.013605653 -0.00014455653 0.04496565
-0.015720967 -0.012811478 -0.021772606 -0.018996328 0.005428883 0.047134496 0.0021317345 0.050760154
-0.008539858 0.037999477 -0.022316912 -0.012825049 -0.015369264 -0.035798196 -0.006556409 0.02644771
-0.013972698 0.03209683 -0.0030684667 -0.008959445 0.008056317 0.031273745 -0.0031457648 -0.011761462
0.010298188 -0.0025574234 -0.014025994 0.017445417 -0.025289921 -0.015461829 -0.008783032 -0.0455585
-0.024101134 0.048696622 -0.00020364425 -0.013471969 0.03662337 -0.022226196 -0.022570936 -0.00925419
